models/detect.onnx (onnx, 215969 bytes, 7 tensors)

last_layer.weight f2 [1, 50, 21]
0.0928 -0.1544 -0.2334 -0.1304 0.103 0.0958 -0.03247 0.01432
-0.067 0.0393 0.0881 0.04025 0.01593 -0.0482 -0.000645 0.0423
-0.0526 -0.1079 -0.1707 -0.04996 -0.0796 0.1392 0.03168 -0.01337
0.092 -0.08685 -0.0633 -0.1711 -0.1753 -0.1011 0.0716 0.0474
-0.02112 -0.0642 -0.05783 -0.0564 -0.0964 -0.134 -0.11084 -0.02965
-0.1763 -0.09515 0.02634 -0.1153 -0.0344 -0.03748 0.11646 0.01384
-0.1833 -0.1975 -0.06107 0.1243 -0.01839 -0.0584 0.0993 -0.158
-0.244 -0.1147 -0.02844 -0.04062 0.0408 0.01324 0.1131 0.1395
-0.0505 0.006855 -0.02693 0.0811 -0.01828 -0.08514 -0.08405 -0.032
-0.065 -0.05225 -0.1137 -0.0654 0.02864 0.025 -0.0655 -0.02756
0.02298 0.04456 -0.0679 -0.1791 -0.05634 -0.02315 -0.0467 -0.002932
-0.0263 0.0002292 -0.04446 0.02406 -0.0278 -0.02911 0.05078 0.013695
0.02985 -0.04926 -0.0362 0.04114 0.06247 0.056 0.0409 0.02893
0.004917 0.0694 0.0958 0.0561 -0.003881 0.0788 0.04346 -0.05615
-0.0878 -0.11444 -0.0697 -0.0308 -0.1757 -0.0871 -0.1675 0.1037
-0.07465 -0.1697 -0.01689 -0.1058 -0.00845 -0.03897 0.129 0.03192
0.08307 0.00458 0.12177 0.0184 0.0729 -0.03644 -0.1752 -0.0766
0.10046 -0.09064 -0.1225 -0.278 -0.1145 -0.07214 0.07355 0.0003853
0.0637 -0.01176 0.08044 0.001618 -0.02621 -0.0208 0.06134 0.0317
-0.03558 -0.007378 -0.0201 -0.003717 0.00664 0.04886 -0.10516 0.0216
-0.03116 -0.12 0.04758 -0.1298 -0.09106 0.04175 0.0812 -0.01405
-0.1635 -0.1863 -0.0854 0.01639 -0.063 0.0593 -0.09735 -0.05807
-0.07983 -0.03049 -0.04205 0.01637 -0.00166 0.0942 0.01942 0.05844
-0.0938 0.01455 0.0388 0.0647 0.04068 -0.0997 -0.129 -0.02562
0.0525 -0.0532 -0.1133 -0.1592 -0.209 -0.2267 -0.2407 -0.2134
-0.135 0.003143 0.1305 0.06104 0.0203 -0.08014 0.015 0.1278
0.06854 0.02625 0.0883 0.0444 0.02061 -0.05597 -0.0806 -0.04163
-0.0445 -0.08966 -0.1257 0.0796 -0.09393 -0.1295 0.00955 -0.0712
-0.07 0.1083 -0.02235 -0.0006633 0.0869 -0.0319 0.0672 0.1174
-0.08514 -0.213 -0.1737 -0.1046 -0.1279 -0.1119 -0.05746 -0.00834
0.05804 0.013054 0.02747 0.01839 0.08887 -0.01239 -0.05493 -0.05927
-0.089 0.05563 0.02795 0.0914 0.02493 -0.06186 -0.01833 -0.0402
00000000: f02d f1b0 78b3 2cb0 982e 222e 28a8 5523
00000010: 4aac 0829 a32d 2729 1424 2baa 4991 6a29
00000020: bcaa e8ae 76b1 65aa 18ad 7430 0e28 d8a2
00000030: e32d 8fad 0dac 7ab1 9cb1 78ae 952c 112a
00000040: 68a5 1cac 67ab 38ab 2bae 4ab0 18af 97a7
00000050: a4b1 17ae be26 61af 67a8 cca8 742f 1623
00000060: deb1 52b2 d1ab f52f b5a4 7aab 5b2e 0eb1
00000070: cfb3 57af 48a7 33a9 3929 c722 3d2f 7730
00000080: 77aa 051f e5a6 312d aea4 73ad 61ad 19a8
00000090: 29ac b0aa 47af 30ac 5527 6626 31ac 0ea7
000000a0: e225 b429 58ac bbb1 36ab eda5 faa9 019a
000000b0: bca6 830b b1a9 2926 1ea7 74a7 802a 0323
000000c0: a427 4eaa a2a8 4429 ff2b 2b2b 3c29 6827
000000d0: 091d 712c 222e 2e2b f39b 0b2d 9029 30ab
000000e0: 9fad 53af 76ac e3a7 9fb1 93ad 5cb1 a32e
000000f0: c7ac 6eb1 53a4 c5ae 54a0 fda8 2130 1628
00000100: 512d b11c cb2f b624 aa2c aaa8 9bb1 e7ac
00000110: 6e2e cdad d7af 73b4 54af 9eac b52c 500e
00000120: 142c 05a2 262d a116 b6a6 53a5 da2b 0f28
00000130: 8ea8 8e9f 25a5 9d9b cd1e 412a bbae 8825
00000140: faa7 aeaf 172a 27b0 d4ad 5829 322d 32a3
00000150: 3bb1 f6b1 77ad 3224 08ac 972b 3bae 6fab
00000160: 1cad cea7 62a9 3124 cd96 072e f924 7b2b
00000170: 01ae 7323 f728 242c 3529 61ae 21b0 8fa6
00000180: b82a cfaa 40af 18b1 b0b2 41b3 b4b3 d4b2
00000190: 52b0 701a 2d30 d02b 3225 21ad ae23 1730
000001a0: 632c b826 a72d af29 4725 2aab 29ad 54a9
000001b0: b2a9 bdad 06b0 182d 03ae 25b0 e420 8fac
000001c0: 7bac ee2e b9a5 6f91 902d 15a8 4d2c 832f
000001d0: 73ad d1b2 8fb1 b2ae 18b0 29af 5bab 45a0
000001e0: 6e2b af22 0827 b524 b02d 58a2 08ab 96ab
000001f0: b2ad 1f2b 2827 d92d 6226 ebab b1a4 25a9

conv.0.weight f2 [50, 1, 21]
0.04968 -0.02374 -0.1014 0.10345 0.1729 -0.1357 -0.1317 -0.005596
0.1384 0.0372 -0.1157 -0.05475 0.01936 0.1989 -0.01709 -0.1531
0.03403 0.0755 0.0585 0.001156 0.01758 -0.02574 -0.0753 -0.1306
-0.00743 -0.04578 0.1354 0.16 0.05408 -0.11865 -0.09766 -0.06046
0.1658 0.1432 -0.0699 -0.11304 -0.0377 0.087 0.0785 0.002224
-0.1475 -0.1084 -0.05917 -0.1462 -0.1495 -0.01138 0.04318 -0.0392
0.08154 0.06396 -0.0932 -0.1026 0.01433 0.0562 -0.004612 0.0646
-0.01668 -0.02942 -0.02054 0.03604 0.05966 0.0667 0.03357 0.1559
-0.007732 -0.1597 -0.01506 0.05283 -0.069 -0.004173 0.193 -0.044
-0.1295 0.1548 0.05646 -0.0412 -0.0905 0.1354 -0.010086 -0.02954
0.001463 0.04077 -0.0584 0.01807 0.01135 -0.009125 -0.0949 0.01291
0.10724 0.1753 0.0989 -0.1858 -0.1364 -0.11194 0.02393 0.01081
0.004818 0.03787 -0.142 -0.0968 0.02103 0.1987 0.2465 0.0869
-0.0979 0.02371 -0.01446 -0.0693 0.1104 0.1686 -0.0424 -0.09875
0.04514 0.0662 -0.07245 -0.1956 0.07025 0.135 0.02019 0.003565
-0.06067 0.1582 0.10297 -0.09796 -0.05255 0.02988 -0.0794 0.08795
0.10535 -0.02895 -0.1794 0.05017 0.1575 0.05563 0.03604 0.0779
-0.003023 -0.1763 -0.09534 0.1802 -0.02985 0.09265 0.0924 0.03885
-0.03882 5.07e-05 -0.10406 0.0788 0.1399 0.08923 -0.0973 -0.0939
0.07465 0.05148 -0.02637 -0.03503 0.000261 -0.01787 -0.002165 -0.01031
-0.04617 -0.0337 -0.01352 0.01639 0.06256 0.0485 -0.02444 -0.1556
-0.158 0.1593 -0.04617 -0.1409 -0.1159 -0.03558 0.05554 -0.001925
0.0759 0.08044 0.03525 0.12085 0.1914 -0.03534 -0.05417 -0.0005364
0.04816 -0.0847 -0.05356 -0.00988 -0.1255 -0.02214 -0.077 -0.01997
0.05914 -0.002092 0.1422 0.0744 -0.07166 -0.2505 -0.0719 0.0593
0.04205 0.05594 0.05804 0.03732 0.03656 -0.0369 -0.01822 -0.03876
-0.09076 0.0402 -0.1225 0.02359 0.14 0.03049 0.09644 0.01776
0.07574 0.02208 -0.2131 -0.0876 -0.0704 0.2025 0.313 -0.0003486
-0.1948 -0.2037 0.00792 0.1225 0.0332 0.04196 -0.1747 -0.0662
0.1658 0.001675 -0.1742 -0.0751 0.1716 0.01544 0.0805 0.2576
0.1282 -0.2386 -0.3809 -0.02109 0.1414 0.1198 -0.11816 0.01698
0.09894 -0.12274 0.02208 0.00977 0.08264 -0.137 -0.1785 -0.1637
00000000: 5c2a 14a6 7dae 9f2e 8831 58b0 37b0 bb9d
00000010: 6e30 c328 68af 02ab f524 5d32 60a4 e6b0
00000020: 5b28 d52c 7d2b bc14 8024 97a6 d2ac 2eb0
00000030: 9c9f dca9 5530 1f31 ec2a 98af 40ae bdab
00000040: 4e31 9530 79ac 3caf d3a8 912d 062d 8e18
00000050: b8b0 f0ae 93ab aeb0 c9b0 d4a1 8729 05a9
00000060: 382d 182c f7ad 91ae 5623 322b b99c 222c
00000070: 45a4 88a7 42a5 9d28 a32b 452c 4c28 fd30
00000080: eb9f 1cb1 b6a3 c32a 6aac 469c 2d32 a2a9
00000090: 25b0 f430 3a2b 46a9 cbad 5530 2aa1 90a7
000000a0: fe15 3829 7aab a024 d021 aca0 13ae 9c22
000000b0: dd2e 9c31 542e f2b1 5db0 2aaf 2026 8921
000000c0: ef1c d928 8bb0 32ae 6225 5c32 e333 902d
000000d0: 44ae 1226 67a3 6fac 112f 6531 6da9 52ae
000000e0: c729 3d2c a3ac 42b2 7f2c 5230 2b25 4d1b
000000f0: c4ab 1031 972e 45ae baaa a627 15ad a12d
00000100: be2e 69a7 beb1 6c2a 0a31 1f2b 9d28 fc2c
00000110: 319a a4b1 1aae c431 a4a7 ee2d ea2d f928
00000120: f8a8 5303 a9ae 0b2d 7a30 b62d 3aae 02ae
00000130: c72c 972a c0a6 7ca8 470c 93a4 6f98 47a1
00000140: e9a9 50a8 eca2 3224 012c 352a 42a6 fbb0
00000150: 0eb1 1931 e9a9 82b0 6baf 8ea8 1c2b e397
00000160: dc2c 262d 8328 bc2f 2032 86a8 efaa 6590
00000170: 2a2a 6cad dbaa 0fa1 04b0 aba5 eeac 1da5
00000180: 922b 4998 8d30 c32c 96ac 02b4 9aac 972b
00000190: 6229 292b 6e2b c728 ae28 b9a8 aaa4 f6a8
000001a0: cfad 2529 d7af 0a26 7b30 ce27 2c2e 8c24
000001b0: d92c a725 d2b2 9bad 81ac 7b32 0235 b68d
000001c0: 3cb2 85b2 0e20 d72f 4028 5f29 97b1 3dac
000001d0: 4e31 dc16 93b1 ceac 7e31 e823 272d 1f34
000001e0: 1a30 a3b3 18b6 66a5 8630 ab2f 90af 5924
000001f0: 552e dbaf a725 0121 4a2d 62b0 b6b1 3db1

conv.0.bias f2 [50]
0.238 -0.2269 -0.2354 0.10956 -0.163 0.2155 0.0776 -0.14
-0.2612 -0.1862 -0.02704 -0.05396 -0.4182 0.2094 -0.2048 -0.6772
0.01242 0.015175 -0.2654 -0.1098 -0.2286 0.01839 -0.1065 0.1048
-0.5415 -0.3762 -0.6875 0.3374 0.0668 0.1523 -0.1388 -0.1526
0.2979 -0.4482 -0.3794 -0.455 -0.0009627 0.1001 -0.479 -0.358
-0.281 -0.3225 -0.3906 -0.3826 0.1921 -0.2341 -0.3887 -0.283
-0.1852 -0.541
00000000: 9e33 43b3 88b3 032f 37b1 e532 f72c 7bb0
00000010: 2eb4 f5b1 eca6 e8aa b1b6 b332 8eb2 6bb9
00000020: 5c22 c523 3fb4 07af 51b3 b524 d1ae b52e
00000030: 55b8 05b6 80b9 6635 462c e030 71b0 e2b0
00000040: c434 2cb7 12b6 48b7 e393 682e aab7 bab5
00000050: 7fb4 29b5 40b6 1fb6 2632 7eb3 38b6 87b4
00000060: edb1 54b8

conv.2.weight f2 [50, 50, 21]
0.0177 -0.04718 -0.05408 0.01077 0.0519 0.036 -0.01878 -0.013145
-0.01269 -0.0392 0.00864 0.0467 -0.003304 0.00893 0.001228 -0.0317
0.02094 0.06256 -0.02577 -0.0456 0.03497 0.00903 0.002863 -0.005592
-0.01682 0.00177 -0.05444 -0.01032 0.01181 0.01695 -0.04028 -0.02364
-0.00869 -0.02621 0.01753 0.01076 -0.02469 -0.06027 0.002283 -0.00833
0.01578 -0.0833 -0.03696 0.02779 0.03162 0.02202 0.000984 0.02571
-0.03204 0.0318 -0.03806 -0.1298 -0.05957 -0.07764 -0.01889 -0.066
0.009796 0.014046 -0.01967 -0.06223 0.02884 -0.01527 -0.02434 -0.03513
0.01265 -0.02785 0.06464 0.007866 0.01839 0.0367 -0.03955 0.03754
0.0441 0.01115 -0.01677 -0.02475 -0.01433 0.03342 0.02126 -0.006382
-0.01492 0.004807 0.01843 0.00649 -0.03323 0.01454 -0.001081 -0.05606
-0.05737 -0.02495 -0.0557 -0.03317 0.02342 -0.00069 -0.01226 -0.09375
0.00842 -0.0188 0.02393 0.02165 -0.02226 -0.0269 0.001852 0.01886
0.05054 0.03387 0.03062 0.0338 -0.011284 0.04456 -0.06586 -0.0649
0.007084 -0.06177 -0.007793 0.002092 0.03156 0.0336 0.03253 0.03113
-0.0391 0.05685 0.01978 0.04056 -0.00622 0.045 0.02509 -0.00909
0.02461 0.009895 -0.03983 0.03177 -0.02773 0.001984 0.04874 0.02397
0.01284 0.0339 0.04398 -0.002054 -0.0244 -0.02689 -0.0567 -0.004517
0.03528 -0.0005827 0.05328 -0.03427 -0.01382 -0.00819 -0.03766 -0.000717
-0.01074 -0.00336 -0.04648 -0.0278 -0.05817 -0.0006275 -0.02423 -0.01029
0.00975 0.0368 -0.02715 0.01575 -0.003107 0.003887 0.01709 0.05878
-0.0903 -0.02293 -0.02997 -0.02539 0.000975 0.03925 -0.04486 -0.02815
0.003574 -0.0258 0.01141 0.06223 0.03394 0.06165 -0.010796 0.02028
-0.04135 0.01177 -0.001997 0.004284 0.00931 -0.02388 0.00835 -0.01648
-0.003458 -0.04324 0.01201 -0.02971 0.002186 -0.01617 0.0157 -0.01059
-0.04474 -0.04916 0.03287 0.01999 -0.02321 0.003624 -0.02046 0.05832
-0.002777 -0.0484 -0.07324 -0.02116 0.005756 -0.04428 -0.03278 -0.04605
-0.01706 0.0044 -0.03693 -0.03537 0.05066 0.01551 0.0087 -0.05283
-0.00965 -0.01349 0.004642 0.00895 0.05994 -0.0968 -0.02464 -0.0455
-0.00897 -0.05246 0.006012 -0.11053 -0.0646 -0.02757 -0.02902 -0.0289
-0.03348 -0.02142 0.05304 -0.003252 -0.03494 -0.0243 -0.05893 0.02617
-0.075 -0.002851 -0.04092 0.02568 -0.008224 0.0504 0.00954 0.03207
00000000: 8824 0aaa ecaa 8421 a52a 9c28 cfa4 bba2
00000010: 7fa2 05a9 6c20 fa29 c49a 9220 0815 0fa8
00000020: 5c25 012c 99a6 d6a9 7a28 a020 dd19 ba9d
00000030: 4ea4 4017 f8aa 49a1 0c22 5724 28a9 0da6
00000040: 73a0 b6a6 7d24 8221 52a6 b7ab ad18 44a0
00000050: 0a24 55ad bba8 1d27 0c28 a325 0814 9526
00000060: 1aa8 1228 dfa8 27b0 a0ab f8ac d6a4 39ac
00000070: 0421 3123 09a5 f7ab 6227 d1a3 3ba6 7fa8
00000080: 7a22 21a7 232c 0720 b524 b328 10a9 ce28
00000090: a529 b521 4ba4 56a6 56a3 4728 7125 899e
000000a0: a4a3 ec1c b824 a51e 41a8 7223 6e94 2dab
000000b0: 58ab 63a6 21ab 3fa8 ff25 a791 47a2 00ae
000000c0: 5020 d0a4 2026 8b25 b3a5 e3a6 9617 d424
000000d0: 782a 5628 d727 5428 c7a1 b429 37ac 27ac
000000e0: 411f e8ab fb9f 4918 0a28 4d28 2a28 f827
000000f0: 01a9 472b 1025 3129 5f9e c329 6c26 a7a0
00000100: 4d26 1121 19a9 1128 19a7 1018 3d2a 2326
00000110: 9322 5728 a129 3598 3fa6 e2a6 42ab a09c
00000120: 8428 c690 d22a 63a8 13a3 31a0 d2a8 e091
00000130: 80a1 e29a f3a9 1ea7 72ab 2491 34a6 45a1
00000140: fe20 b628 f3a6 0824 5d9a f61b 6024 862b
00000150: c7ad dfa5 aca7 80a6 fd13 0629 bea9 35a7
00000160: 521b 9ba6 d821 f72b 5828 e42b 87a1 3125
00000170: 4ba9 0722 1798 631c c420 1da6 4620 38a4
00000180: 159b 89a9 2622 9ba7 7a18 24a4 0524 6ca1
00000190: baa9 4baa 3528 1e25 f1a5 6c1b 3da5 772b
000001a0: b099 32aa b0ac 6ba5 e51d aba9 32a8 e5a9
000001b0: 5ea4 811c baa8 87a8 7c2a f123 7420 c3aa
000001c0: f1a0 e8a2 c11c 9520 ac2b 32ae 4fa6 d3a9
000001d0: 98a0 b7aa 281e 13af 22ac 0fa7 6ea7 66a7
000001e0: 49a8 7ca5 ca2a a99a 79a8 39a6 8bab b326
000001f0: cdac d799 3da9 9326 36a0 742a e220 1b28

conv.2.bias f2 [50]
0.4592 -0.05728 0.0259 -0.042 -0.2252 -0.0788 -0.2798 -0.0559
-0.0761 0.04962 -0.01464 0.0476 0.2717 -0.1296 -0.098 -0.1179
0.1602 0.0794 -0.00061 0.444 0.2712 -0.264 -0.0196 -0.0912
-0.2081 -0.08777 -0.01872 0.001065 0.2773 -0.1715 -0.2683 0.0804
0.2426 -0.1263 -0.1494 0.3994 -0.08344 0.2206 0.4766 -0.0839
0.4226 -0.3105 0.09033 0.398 -0.01064 -0.01451 -0.2129 -0.0743
-0.00815 0.5195
00000000: 5937 55ab a126 60a9 35b3 0bad 7ab4 28ab
00000010: dfac 5a2a 7fa3 182a 5934 26b0 46ae 8caf
00000020: 2031 152d ff90 1b37 5734 39b4 05a5 d6ad
00000030: a9b2 9ead cba4 5d14 7034 7db1 4bb4 252d
00000040: c333 0bb0 c8b0 6436 57ad 0f33 a037 5fad
00000050: c336 f8b4 c82d 5e36 73a1 6ea3 d0b2 c1ac
00000060: 2ca0 2838

conv.4.weight f2 [50, 50, 21]
-0.00848 -0.03123 0.03152 0.0425 0.0897 -0.03912 -0.07733 -0.0379
-0.01098 -0.003332 0.0363 0.064 0.0816 0.01768 0.0932 -0.01493
0.06158 0.03976 0.01454 0.05695 -0.00305 0.04962 -0.0505 0.0339
-0.002613 0.01142 -0.03445 0.02109 0.001777 -0.01915 -0.0761 0.03357
-0.0892 -0.02357 0.0228 0.04523 -0.005352 -0.01878 -0.07513 -0.04678
-0.0927 -0.07214 0.03485 -0.0431 -0.0883 -0.02388 -0.00385 0.0458
-0.0404 0.000846 -0.0687 0.0197 0.01526 0.003717 0.0649 0.008
-0.03378 0.0609 0.03265 -0.01047 -0.03882 0.0704 0.03394 -0.04688
-0.0101 0.01796 0.02374 -0.0529 0.0179 -0.04193 0.03204 0.03876
0.01214 0.010605 -0.02585 -0.01076 -0.0276 -0.0367 0.01436 -0.02818
-0.01181 0.03516 -0.04077 0.045 0.007614 -0.02855 -0.01501 -0.01054
-0.001503 -0.01132 0.001336 -0.03662 0.005737 0.004963 0.03552 -0.02484
0.0443 -0.0251 -0.0623 -0.0361 -0.0381 -0.0826 -0.01971 -0.02354
-0.05652 0.07935 -0.00862 -0.03036 0.009346 -0.04285 -0.01537 -0.0102
-0.06287 0.006477 -0.0288 -0.01726 0.03091 0.05685 -0.011894 -0.01753
-0.0818 -0.01732 0.0289 -0.0696 -0.01187 -0.0201 -0.01758 -0.05746
-0.04086 -0.05884 -0.02014 0.0001359 -0.00863 0.004658 0.0578 -0.001679
-0.0394 0.002745 -0.02638 0.0326 0.05084 0.002636 -0.0797 0.001526
-0.06464 0.01183 0.04407 0.063 0.04608 -0.01988 0.02162 0.03308
-0.03793 -0.02583 -0.0441 0.01417 0.01474 -0.04617 0.04504 0.06354
-0.01753 -0.1064 0.03354 0.02182 -0.0471 0.07697 0.01949 0.05347
-0.04022 -0.0901 -0.0648 -0.03119 -0.01539 0.01733 -0.0173 0.00492
-0.0459 0.02173 0.04785 -0.0163 0.04117 -0.0517 -0.02443 -0.04465
-0.03091 -0.0845 -0.02367 0.05667 0.01316 -0.0138 0.01196 0.0783
-0.02097 0.01968 -0.002934 0.006645 -0.010376 0.004616 -0.03766 0.04306
-0.01011 -0.0636 -0.03146 0.000953 0.006466 0.0306 -0.003424 -0.001266
0.008896 -0.011086 0.0381 -0.03006 -0.0219 0.02264 0.04016 0.01926
0.0184 0.006474 0.04663 0.0255 0.0008073 0.0006566 0.03687 -0.014305
-0.0524 0.01651 0.06003 -0.04324 -0.02461 -0.01123 0.02751 0.03842
-0.004753 -0.00736 -0.02928 0.017 0.00969 -0.007614 -0.00379 -0.0318
-0.02106 -0.02481 0.04245 0.02031 -0.01114 0.04752 -0.0009165 0.05396
0.0497 0.02603 -0.008644 0.01987 -0.00201 0.0641 -0.0194 -0.00961
00000000: 57a0 ffa7 0928 7129 be2d 02a9 f3ac daa8
00000010: 9fa1 d39a a528 192c 392d 8724 f72d a5a3
00000020: e22b 1729 7223 4a2b 3f9a 5a2a 77aa 5728
00000030: 5a99 d921 69a8 6625 4717 e7a4 dfac 4c28
00000040: b5ad 09a6 d625 ca29 7b9d cfa4 cfac fda9
00000050: efad 9eac 7628 84a9 a7ad 1da6 e39b dd29
00000060: 2ca9 ee12 66ac 0b25 d023 9d1b 272c 1920
00000070: 53a8 cc2b 2e28 5ca1 f8a8 812c 5828 00aa
00000080: 2ca1 9924 1426 c5aa 9524 5ea9 1a28 f628
00000090: 3722 6e21 9ea6 82a1 11a7 b3a8 5a23 37a7
000000a0: 0ca2 8028 38a9 c329 cc1f 4fa7 afa3 65a1
000000b0: 2896 cca1 7915 b0a8 e01d 151d 8c28 5ca6
000000c0: ac29 6da6 f9ab 9fa8 e0a8 49ad 0ca5 07a6
000000d0: 3cab 142d 6aa0 c6a7 c920 7ca9 dfa3 39a1
000000e0: 06ac a21e 5fa7 6ba4 ea27 472b 17a2 7da4
000000f0: 3cad 6fa4 6627 74ac 14a2 25a5 80a4 5bab
00000100: 3ba9 88ab 28a5 7408 6ba0 c51c 662b e196
00000110: 0ba9 9f19 c1a6 2c28 822a 6619 1aad 4016
00000120: 23ac 0f22 a429 082c e629 17a5 8925 3c28
00000130: dba8 9da6 a5a9 4123 8c23 e9a9 c429 112c
00000140: 7da4 cfae 4b28 9625 07aa ed2c fd24 d82a
00000150: 26a9 c4ad 26ac fca7 e1a3 7024 6ea4 0a1d
00000160: e0a9 9025 202a 2ca4 4529 9eaa 41a6 b7a9
00000170: eaa7 68ad 0fa6 412b bd22 11a3 2022 032d
00000180: 5ea5 0a25 029a ce1e 50a1 ba1c d2a8 8329
00000190: 2da1 12ac 07a8 cf13 9f1e d527 039b 2f95
000001a0: 8e20 ada1 e028 b2a7 9ba5 cc25 2429 ee24
000001b0: b624 a11e f829 8726 9d12 6111 b828 53a3
000001c0: b5aa 3a24 af2b 89a9 4da6 c0a1 0b27 eb28
000001d0: de9c 899f 7fa7 5a24 f620 cc9f c39b 12a8
000001e0: 64a5 5aa6 6f29 3325 b4a1 152a 8293 e82a
000001f0: 5d2a aa26 6da0 1625 1e98 1a2c f7a4 eca0

conv.4.bias f2 [50]
0.241 0.5024 0.404 0.2366 0.0027 0.3215 0.3198 -0.06836
0.0988 0.6997 0.1271 0.3938 0.1273 0.05417 -0.001201 0.5464
-0.0079 0.005188 0.5083 0.04626 -0.00901 0.483 0.0323 0.01359
0.03192 0.02783 0.04907 0.03784 0.2007 0.1371 0.1608 0.1835
0.2156 -0.01237 -0.008316 0.004368 0.03217 0.09534 -0.1362 0.695
0.1494 -0.07135 0.02623 -0.10645 0.11206 0.2766 0.546 0.1545
0.07275 0.1508
00000000: b633 0538 7736 9233 8819 2535 1e35 60ac
00000010: 532e 9939 1130 4d36 1330 ef2a eb94 5f38
00000020: 0ba0 501d 1138 ec29 9da0 ba37 2228 f522
00000030: 1628 2027 482a d828 6c32 6330 2531 df31
00000040: e632 55a2 42a0 791c 1e28 1a2e 5cb0 8f39
00000050: c830 91ac b726 d0ae 2c2f 6d34 5e38 f230
00000060: a82c d330
