models/detect.onnx (onnx, 430477 bytes, 7 tensors)

last_layer.weight f4 [1, 50, 21]
00000000: 0000 be3d 0020 1ebe 0000 6fbe 0080 05be
00000010: 0000 d33d 0040 c43d 0000 05bd 00a0 6a3c
00000020: 0040 89bd 0000 213d 0060 b43d 00e0 243d
00000030: 0080 823c 0060 45bd 0020 29ba 0040 2d3d
00000040: 0080 57bd 0000 ddbd 00c0 2ebe 00a0 4cbd
00000050: 0000 a3bd 0080 0e3e 00c0 013d 0000 5bbc
00000060: 0060 bc3d 00e0 b1bd 00a0 81bd 0040 2fbe
00000070: 0080 33be 0000 cfbd 00a0 923d 0020 423d
00000080: 0000 adbc 0080 83bd 00e0 6cbd 0000 67bd
00000090: 0060 c5bd 0040 09be 0000 e3bd 00e0 f2bc
000000a0: 0080 34be 00e0 c2bd 00c0 d73c 0020 ecbd
000000b0: 00e0 0cbd 0080 19bd 0080 ee3d 00c0 623c
000000c0: 00c0 3bbe 0040 4abe 0020 7abd 00a0 fe3d
000000d0: 00a0 96bc 0040 6fbd 0060 cb3d 00c0 21be
000000e0: 00e0 79be 00e0 eabd 0000 e9bc 0060 26bd
000000f0: 0020 273d 00e0 583c 00a0 e73d 00e0 0e3e
00000100: 00e0 4ebd 00a0 e03b 00a0 dcbc 0020 a63d
00000110: 00c0 95bc 0060 aebd 0020 acbd 0020 03bd
00000120: 0020 85bd 0000 56bd 00e0 e8bd 0000 86bd
00000130: 00a0 ea3c 00c0 cc3c 0020 86bd 00c0 e1bc
00000140: 0040 bc3c 0080 363d 0000 8bbd 0060 37be
00000150: 00c0 66bd 00a0 bdbc 0040 3fbd 0020 40bb
00000160: 0080 d7bc 0060 7039 0020 36bd 0020 c53c
00000170: 00c0 e3bc 0080 eebc 0000 503d 0060 603c
00000180: 0080 f43c 00c0 49bd 0040 14bd 0080 283d
00000190: 00e0 7f3d 0060 653d 0080 273d 0000 ed3c
000001a0: 0020 a13b 0020 8e3d 0040 c43d 00c0 653d
000001b0: 0060 7ebb 0060 a13d 0000 323d 0000 66bd
000001c0: 00e0 b3bd 0060 eabd 00c0 8ebd 0060 fcbc
000001d0: 00e0 33be 0060 b2bd 0080 2bbe 0060 d43d
000001e0: 00e0 98bd 00c0 2dbe 0060 8abc 00a0 d8bd
000001f0: 0080 0abc 00a0 1fbd 0020 043e 00c0 023d
00000200: 0020 aa3d 0020 963b 0060 f93d 00c0 963c
00000210: 0040 953d 0040 15bd 0060 33be 00e0 9cbd
00000220: 00c0 cd3d 00a0 b9bd 00e0 fabd 0060 8ebe
00000230: 0080 eabd 00c0 93bd 00a0 963d 0000 ca39
00000240: 0080 823d 00a0 40bc 00c0 a43d 0020 d43a
00000250: 00c0 d6bc 0060 aabc 0040 7b3d 00e0 013d
00000260: 00c0 11bd 00c0 f1bb 00a0 a4bc 00a0 73bb
00000270: 00a0 d93b 0020 483d 0060 d7bd 0000 b13c
00000280: 0040 ffbc 00c0 f5bd 00e0 423d 00e0 04be
00000290: 0080 babd 0000 2b3d 0040 a63d 0040 66bc
000002a0: 0060 27be 00c0 3ebe 00e0 aebd 0040 863c
000002b0: 0000 81bd 00e0 723d 0060 c7bd 00e0 6dbd
000002c0: 0080 a3bd 00c0 f9bc 0040 2cbd 0020 863c
000002d0: 00a0 d9ba 00e0 c03d 0020 9f3c 0060 6f3d
000002e0: 0020 c0bd 0060 6e3c 00e0 1e3d 0080 843d
000002f0: 00a0 263d 0020 ccbd 0020 04be 00e0 d1bc
00000300: 0000 573d 00e0 59bd 0000 e8bd 0000 23be
00000310: 0000 56be 0020 68be 0080 76be 0080 5abe
00000320: 0040 0abe 0000 4e3b 00a0 053e 0000 7a3d
00000330: 0040 a63c 0020 a4bd 00c0 753c 00e0 023e
00000340: 0060 8c3d 0000 d73c 00e0 b43d 00e0 353d
00000350: 00e0 a83c 0040 65bd 0020 a5bd 0080 2abd
00000360: 0040 36bd 00a0 b7bd 00c0 00be 0000 a33d
00000370: 0060 c0bd 00a0 04be 0080 1c3c 00e0 91bd
00000380: 0060 8fbd 00c0 dd3d 0020 b7bc 00e0 2dba
00000390: 0000 b23d 00a0 02bd 00a0 893d 0060 f03d
000003a0: 0060 aebd 0020 5abe 00e0 31be 0040 d6bd
000003b0: 0000 03be 0020 e5bd 0060 6bbd 00a0 08bc
000003c0: 00c0 6d3d 00e0 553c 0000 e13c 00a0 963c
000003d0: 0000 b63d 0000 4bbc 0000 61bd 00c0 72bd
000003e0: 0040 b6bd 00e0 633d 0000 e53c 0020 bb3d
000003f0: 0040 cc3c 0060 7dbd 0020 96bc 00a0 24bd
0.09277344 -0.15441895 -0.23339844 -0.1303711 0.103027344 0.095825195 -0.032470703 0.014320374
-0.0670166 0.03930664 0.08807373 0.040252686 0.015930176 -0.048187256 -0.0006451607 0.042297363
-0.052612305 -0.107910156 -0.1706543 -0.049957275 -0.079589844 0.13916016 0.031677246 -0.013366699
0.09197998 -0.08685303 -0.06329346 -0.17114258 -0.17529297 -0.10107422 0.07159424 0.0473938
-0.021118164 -0.064208984 -0.05783081 -0.056396484 -0.09637451 -0.1340332 -0.110839844 -0.029647827
-0.17626953 -0.09515381 0.02633667 -0.11529541 -0.03439331 -0.037475586 0.11645508 0.013839722
-0.18334961 -0.19750977 -0.061065674 0.12432861 -0.01838684 -0.058410645 0.0993042 -0.15795898
-0.24401855 -0.11468506 -0.028442383 -0.040618896 0.040802002 0.0132369995 0.113098145 0.13952637
-0.05050659 0.006855011 -0.026931763 0.08111572 -0.01828003 -0.08514404 -0.08404541 -0.03201294
-0.06500244 -0.052246094 -0.113708496 -0.06542969 0.028640747 0.024993896 -0.06549072 -0.027557373
0.022979736 0.044555664 -0.067871094 -0.17907715 -0.05633545 -0.023147583 -0.046691895 -0.0029315948
-0.026306152 0.00022923946 -0.04446411 0.02406311 -0.027801514 -0.02911377 0.05078125 0.013694763
0.029846191 -0.04925537 -0.036193848 0.041137695 0.062469482 0.055999756 0.040893555 0.028930664
0.004917145 0.06939697 0.095825195 0.05609131 -0.0038814545 0.07879639 0.04345703 -0.056152344
-0.08782959 -0.11444092 -0.06970215 -0.030807495 -0.17565918 -0.08709717 -0.16748047 0.10369873
-0.074645996 -0.16967773 -0.01689148 -0.105773926 -0.008453369 -0.038970947 0.12902832 0.031921387
0.08306885 0.0045814514 0.12176514 0.0184021 0.07287598 -0.03643799 -0.1751709 -0.07659912
0.10046387 -0.09063721 -0.12249756 -0.27807617 -0.11450195 -0.072143555 0.07354736 0.00038528442
0.0637207 -0.011756897 0.080444336 0.0016183853 -0.0262146 -0.02079773 0.061340332 0.031707764
-0.035583496 -0.0073776245 -0.020095825 -0.0037174225 0.006641388 0.048858643 -0.105163574 0.021606445
-0.031158447 -0.11999512 0.047576904 -0.12976074 -0.09106445 0.041748047 0.08117676 -0.014053345
-0.16345215 -0.1862793 -0.08538818 0.01638794 -0.06298828 0.059295654 -0.097351074 -0.05807495
-0.079833984 -0.03048706 -0.042053223 0.01637268 -0.001660347 0.094177246 0.019424438 0.058441162
-0.093811035 0.014549255 0.03878784 0.064697266 0.04067993 -0.09967041 -0.12902832 -0.025619507
0.052490234 -0.05319214 -0.11328125 -0.15917969 -0.20898438 -0.22668457 -0.24072266 -0.2133789
-0.13500977 0.0031433105 0.13049316 0.061035156 0.02029419 -0.08013916 0.01499939 0.12780762
0.06854248 0.026245117 0.08831787 0.044403076 0.020614624 -0.05596924 -0.08062744 -0.041625977
-0.04449463 -0.089660645 -0.12573242 0.079589844 -0.093933105 -0.1295166 0.009552002 -0.07122803
-0.070007324 0.10827637 -0.022354126 -0.0006632805 0.08691406 -0.03189087 0.06719971 0.117370605
-0.08514404 -0.2130127 -0.17370605 -0.10461426 -0.12792969 -0.11187744 -0.0574646 -0.008338928
0.058044434 0.013053894 0.02746582 0.01838684 0.08886719 -0.012390137 -0.05493164 -0.059265137
-0.08898926 0.055633545 0.027954102 0.09136963 0.024932861 -0.06185913 -0.018325806 -0.04019165

conv.0.weight f4 [50, 1, 21]
00000000: 0080 4b3d 0080 c2bc 00a0 cfbd 00e0 d33d
00000010: 0000 313e 0000 0bbe 00e0 06be 0060 b7bb
00000020: 00c0 0d3e 0060 183d 0000 edbd 0040 60bd
00000030: 00a0 9e3c 00a0 4b3e 0000 8cbc 00c0 1cbe
00000040: 0060 0b3d 00a0 9a3d 00a0 6f3d 0080 973a
00000050: 0000 903c 00e0 d2bc 0040 9abd 00c0 05be
00000060: 0080 f3bb 0080 3bbd 00a0 0a3e 00e0 233e
00000070: 0080 5d3d 0000 f3bd 0000 c8bd 00a0 77bd
00000080: 00c0 293e 00a0 123e 0020 8fbd 0080 e7bd
00000090: 0060 1abd 0020 b23d 00c0 a03d 00c0 113b
000000a0: 0000 17be 0000 debd 0060 72bd 00c0 15be
000000b0: 0020 19be 0080 3abc 00e0 303d 00a0 20bd
000000c0: 0000 a73d 0000 833d 00e0 bebd 0020 d2bd
000000d0: 00c0 6a3c 0040 663d 0020 97bb 0040 843d
000000e0: 00a0 88bc 0000 f1bc 0040 a8bc 00a0 133d
000000f0: 0060 743d 00a0 883d 0080 093d 00a0 1f3e
00000100: 0060 fdbb 0080 23be 00c0 76bc 0060 583d
00000110: 0040 8dbd 00c0 88bb 00a0 453e 0040 34bd
00000120: 00a0 04be 0080 1e3e 0040 673d 00c0 28bd
00000130: 0060 b9bd 00a0 0a3e 0040 25bc 0000 f2bc
00000140: 00c0 bf3a 0000 273d 0040 6fbd 0000 943c
00000150: 0000 3a3c 0080 15bc 0060 c2bd 0080 533c
00000160: 00a0 db3d 0080 333e 0080 ca3d 0040 3ebe
00000170: 00a0 0bbe 0040 e5bd 0000 c43c 0020 313c
00000180: 00e0 9d3b 0020 1b3d 0060 11be 0040 c6bd
00000190: 0040 ac3c 0080 4b3e 0060 7c3e 0000 b23d
000001a0: 0080 c8bd 0040 c23c 00e0 6cbc 00e0 8dbd
000001b0: 0020 e23d 00a0 2c3e 00a0 2dbd 0040 cabd
000001c0: 00e0 383d 00a0 873d 0060 94bd 0040 48be
000001d0: 00e0 8f3d 0040 0a3e 0060 a53c 00a0 693b
000001e0: 0080 78bd 0000 223e 00e0 d23d 00a0 c8bd
000001f0: 0040 57bd 00c0 f43c 00a0 a2bd 0020 b43d
00000200: 00c0 d73d 0020 edbc 00c0 37be 0080 4d3d
00000210: 0040 213e 00e0 633d 00a0 133d 0080 9f3d
00000220: 0020 46bb 0080 34be 0040 c3bd 0080 383e
00000230: 0080 f4bc 00c0 bd3d 0040 bd3d 0020 1f3d
00000240: 0000 1fbd 00c0 5438 0020 d5bd 0060 a13d
00000250: 0040 0f3e 00c0 b63d 0040 c7bd 0040 c0bd
00000260: 00e0 983d 00e0 523d 0000 d8bc 0080 0fbd
00000270: 00e0 8839 0060 92bc 00e0 0dbb 00e0 28bc
00000280: 0020 3dbd 0000 0abd 0080 5dbc 0040 863c
00000290: 0020 803d 00a0 463d 0040 c8bc 0060 1fbe
000002a0: 00c0 21be 0020 233e 0020 3dbd 0040 10be
000002b0: 0060 edbd 00c0 11bd 0080 633d 0060 fcba
000002c0: 0080 9b3d 00c0 a43d 0060 103d 0080 f73d
000002d0: 0000 443e 00c0 10bd 00e0 5dbd 00a0 0cba
000002e0: 0040 453d 0080 adbd 0060 5bbd 00e0 21bc
000002f0: 0080 00be 0060 b5bc 00c0 9dbd 00a0 a3bc
00000300: 0040 723d 0020 09bb 00a0 113e 0060 983d
00000310: 00c0 92bd 0040 80be 0040 93bd 00e0 723d
00000320: 0040 2c3d 0020 653d 00c0 6d3d 00e0 183d
00000330: 00c0 153d 0020 17bd 0040 95bc 00c0 1ebd
00000340: 00e0 b9bd 00a0 243d 00e0 fabd 0040 c13c
00000350: 0060 0f3e 00c0 f93c 0080 c53d 0080 913c
00000360: 0020 9b3d 00e0 b43c 0040 5abe 0060 b3bd
00000370: 0020 90bd 0060 4f3e 0040 a03e 00c0 b6b9
00000380: 0080 47be 00a0 50be 00c0 013c 00e0 fa3d
00000390: 0000 083d 00e0 2b3d 00e0 32be 00a0 87bd
000003a0: 00c0 293e 0080 db3a 0060 32be 00c0 99bd
000003b0: 00c0 2f3e 0000 7d3c 00e0 a43d 00e0 833e
000003c0: 0040 033e 0060 74be 0000 c3be 00c0 acbc
000003d0: 00c0 103e 0060 f53d 0000 f2bd 0020 8b3c
000003e0: 00a0 ca3d 0060 fbbd 00e0 b43c 0020 203c
000003f0: 0040 a93d 0040 0cbe 00c0 36be 00a0 27be
0.049682617 -0.023742676 -0.101379395 0.10345459 0.17285156 -0.13574219 -0.13171387 -0.005596161
0.13842773 0.037200928 -0.115722656 -0.054748535 0.019363403 0.19885254 -0.017089844 -0.15307617
0.0340271 0.07550049 0.058502197 0.0011558533 0.017578125 -0.025741577 -0.07531738 -0.13061523
-0.0074310303 -0.045776367 0.13537598 0.16003418 0.05407715 -0.118652344 -0.09765625 -0.060455322
0.16577148 0.14318848 -0.069885254 -0.11303711 -0.03768921 0.0869751 0.07849121 0.0022239685
-0.14746094 -0.10839844 -0.059173584 -0.14624023 -0.14953613 -0.011383057 0.043182373 -0.039215088
0.08154297 0.063964844 -0.09320068 -0.1026001 0.014328003 0.05621338 -0.004611969 0.064575195
-0.016677856 -0.029418945 -0.02053833 0.03604126 0.059661865 0.066711426 0.033569336 0.15588379
-0.0077323914 -0.15966797 -0.015060425 0.052825928 -0.06896973 -0.004173279 0.19299316 -0.044006348
-0.1295166 0.15478516 0.05645752 -0.04119873 -0.09051514 0.13537598 -0.01008606 -0.029541016
0.0014629364 0.040771484 -0.058410645 0.018066406 0.011352539 -0.009124756 -0.09490967 0.012908936
0.10723877 0.17529297 0.09887695 -0.18579102 -0.13635254 -0.11193848 0.023925781 0.010810852
0.0048179626 0.037872314 -0.14196777 -0.09680176 0.021026611 0.19873047 0.24645996 0.08691406
-0.09790039 0.023712158 -0.014457703 -0.0692749 0.1104126 0.1685791 -0.042388916 -0.09875488
0.045135498 0.066223145 -0.07244873 -0.19555664 0.070251465 0.13500977 0.020187378 0.0035648346
-0.060668945 0.15820312 0.10296631 -0.097961426 -0.05255127 0.029876709 -0.07940674 0.08795166
0.10534668 -0.028945923 -0.17944336 0.0501709 0.1574707 0.055633545 0.03604126 0.07788086
-0.0030231476 -0.17626953 -0.095336914 0.18017578 -0.029846191 0.09265137 0.09240723 0.038848877
-0.03881836 5.0723553e-05 -0.10406494 0.07879639 0.13989258 0.0892334 -0.09729004 -0.09387207
0.074645996 0.051483154 -0.026367188 -0.03503418 0.00026106834 -0.017868042 -0.0021648407 -0.010307312
-0.046173096 -0.033691406 -0.013519287 0.01638794 0.062561035 0.04849243 -0.02444458 -0.15563965
-0.15795898 0.15930176 -0.046173096 -0.14086914 -0.11590576 -0.035583496 0.055541992 -0.0019254684
0.075927734 0.080444336 0.035247803 0.12084961 0.19140625 -0.035339355 -0.0541687 -0.0005364418
0.04815674 -0.0847168 -0.05355835 -0.009880066 -0.12548828 -0.022140503 -0.07702637 -0.019973755
0.059143066 -0.0020923615 0.14221191 0.074401855 -0.07165527 -0.25048828 -0.071899414 0.059295654
0.042053223 0.05593872 0.058044434 0.037322998 0.03656006 -0.036895752 -0.018218994 -0.038757324
-0.09075928 0.04019165 -0.12249756 0.023590088 0.14001465 0.03048706 0.09643555 0.01776123
0.07574463 0.022079468 -0.21313477 -0.08758545 -0.070373535 0.20251465 0.31298828 -0.00034856796
-0.19482422 -0.20373535 0.0079193115 0.12249756 0.033203125 0.04196167 -0.17468262 -0.066223145
0.16577148 0.0016746521 -0.17419434 -0.07507324 0.17163086 0.0154418945 0.08050537 0.25756836
0.12817383 -0.23864746 -0.38085938 -0.021087646 0.14135742 0.11981201 -0.11816406 0.016983032
0.09893799 -0.1227417 0.022079468 0.009773254 0.0826416 -0.13696289 -0.1784668 -0.16369629

conv.0.bias f4 [50]
00000000: 00c0 733e 0060 68be 0000 71be 0060 e03d
00000010: 00e0 26be 00a0 5c3e 00e0 9e3d 0060 0fbe
00000020: 00c0 85be 00a0 3ebe 0080 ddbc 0000 5dbd
00000030: 0020 d6be 0060 563e 00c0 51be 0060 2dbf
00000040: 0080 4b3c 00a0 783c 00e0 87be 00e0 e0bd
00000050: 0020 6abe 00a0 963c 0020 dabd 00a0 d63d
00000060: 00a0 0abf 00a0 c0be 0000 30bf 00c0 ac3e
00000070: 00c0 883d 0000 1c3e 0020 0ebe 0040 1cbe
00000080: 0080 983e 0080 e5be 0040 c2be 0000 e9be
00000090: 0060 7cba 0000 cd3d 0040 f5be 0040 b7be
000000a0: 00e0 8fbe 0020 a5be 0000 c8be 00e0 c3be
000000b0: 00c0 443e 00c0 6fbe 0000 c7be 00e0 90be
000000c0: 00a0 3dbe 0080 0abf
0.23803711 -0.22692871 -0.23535156 0.109558105 -0.16296387 0.2154541 0.07757568 -0.14001465
-0.26123047 -0.18615723 -0.027038574 -0.053955078 -0.4182129 0.20935059 -0.20483398 -0.6772461
0.012420654 0.015174866 -0.26538086 -0.109802246 -0.2286377 0.01838684 -0.10650635 0.10479736
-0.5415039 -0.3762207 -0.6875 0.33740234 0.06677246 0.15234375 -0.13879395 -0.15258789
0.29785156 -0.4482422 -0.37939453 -0.45507812 -0.0009627342 0.100097656 -0.4790039 -0.35791016
-0.28100586 -0.32250977 -0.390625 -0.38256836 0.19213867 -0.23413086 -0.38867188 -0.28295898
-0.18518066 -0.5410156

conv.2.weight f4 [50, 50, 21]
00000000: 0000 913c 0040 41bd 0080 5dbd 0080 303c
00000010: 00a0 543d 0080 133d 00e0 99bc 0060 57bc
00000020: 00e0 4fbc 00a0 20bd 0080 0d3c 0040 3f3d
00000030: 0080 58bb 0040 123c 0000 a13a 00e0 01bd
00000040: 0080 ab3c 0020 803d 0020 d3bc 00c0 3abd
00000050: 0040 0f3d 0000 143c 00a0 3b3b 0040 b7bb
00000060: 00c0 89bc 0000 e83a 0000 5fbd 0020 29bc
00000070: 0080 413c 00e0 8a3c 0000 25bd 00a0 c1bc
00000080: 0060 0ebc 00c0 d6bc 00a0 8f3c 0040 303c
00000090: 0040 cabc 00e0 76bd 00a0 153b 0080 08bc
000000a0: 0040 813c 00a0 aabd 0060 17bd 00a0 e33c
000000b0: 0080 013d 0060 b43c 0000 813a 00a0 d23c
000000c0: 0040 03bd 0040 023d 00e0 1bbd 00e0 04be
000000d0: 0000 74bd 0000 9fbd 00c0 9abc 0020 87bd
000000e0: 0080 203c 0020 663c 0020 a1bc 00e0 7ebd
000000f0: 0040 ec3c 0020 7abc 0060 c7bc 00e0 0fbd
00000100: 0040 4f3c 0020 e4bc 0060 843d 00e0 003c
00000110: 00a0 963c 0060 163d 0000 22bd 00c0 193d
00000120: 00a0 343d 00a0 363c 0060 89bc 00c0 cabc
00000130: 00c0 6abc 00e0 083d 0020 ae3c 0020 d1bb
00000140: 0080 74bc 0080 9d3b 0000 973c 00a0 d43b
00000150: 0020 08bd 0040 6e3c 00c0 8dba 00a0 65bd
00000160: 0000 6bbd 0060 ccbc 0020 64bd 00e0 07bd
00000170: 00e0 bf3c 00e0 34ba 00e0 48bc 0000 c0bd
00000180: 0000 0a3c 0000 9abc 0000 c43c 0060 b13c
00000190: 0060 b6bc 0060 dcbc 00c0 f23a 0080 9a3c
000001a0: 0000 4f3d 00c0 0a3d 00e0 fa3c 0080 0a3d
000001b0: 00e0 38bc 0080 363d 00e0 86bd 00e0 84bd
000001c0: 0020 e83b 0000 7dbd 0060 ffbb 0020 093b
000001d0: 0040 013d 00a0 093d 0040 053d 0000 ff3c
000001e0: 0020 20bd 00e0 683d 0000 a23c 0020 263d
000001f0: 00e0 cbbb 0060 383d 0080 cd3c 00e0 14bc
00000200: 00a0 c93c 0020 223c 0020 23bd 0020 023d
00000210: 0020 e3bc 0000 023b 00a0 473d 0060 c43c
00000220: 0060 523c 00e0 0a3d 0020 343d 00a0 06bb
00000230: 00e0 c7bc 0040 dcbc 0040 68bd 0000 94bb
00000240: 0080 103d 00c0 18ba 0040 5a3d 0060 0cbd
00000250: 0060 62bc 0020 06bc 0040 1abd 0000 3cba
00000260: 0000 30bc 0040 5cbb 0060 3ebd 00c0 e3bc
00000270: 0040 6ebd 0080 24ba 0080 c6bc 00a0 28bc
00000280: 00c0 1f3c 00c0 163d 0060 debc 0000 813c
00000290: 00a0 4bbb 00c0 7e3b 0000 8c3c 00c0 703d
000002a0: 00e0 b8bd 00e0 bbbc 0080 f5bc 0000 d0bc
000002b0: 00a0 7f3a 00c0 203d 00c0 37bd 00a0 e6bc
000002c0: 0040 6a3b 0060 d3bc 0000 3b3c 00e0 7e3d
000002d0: 0000 0b3d 0080 7c3d 00e0 30bc 0020 a63c
000002e0: 0060 29bd 00e0 403c 00e0 02bb 0060 8c3b
000002f0: 0080 183c 00a0 c3bc 00c0 083c 0000 87bc
00000300: 00a0 62bb 0020 31bd 00c0 443c 0060 f3bc
00000310: 0040 0f3b 0080 84bc 00a0 803c 0080 2dbc
00000320: 0040 37bd 0060 49bd 00a0 063d 00c0 a33c
00000330: 0020 bebc 0080 6d3b 00a0 a7bc 00e0 6e3d
00000340: 0000 36bb 0040 46bd 0000 96bd 0060 adbc
00000350: 00a0 bc3b 0060 35bd 0040 06bd 00a0 3cbd
00000360: 00c0 8bbc 0020 903b 0040 17bd 00e0 10bd
00000370: 0080 4f3d 0020 7e3c 0080 0e3c 0060 58bd
00000380: 0020 1ebc 0000 5dbc 0020 983b 00a0 123c
00000390: 0080 753d 0040 c6bd 00e0 c9bc 0060 3abd
000003a0: 0000 13bc 00e0 56bd 0000 c53b 0060 e2bd
000003b0: 0040 84bd 00e0 e1bc 00c0 edbc 00c0 ecbc
000003c0: 0020 09bd 0080 afbc 0040 593d 0020 55bb
000003d0: 0020 0fbd 0020 c7bc 0060 71bd 0060 d63c
000003e0: 00a0 99bd 00e0 3abb 00a0 27bd 0060 d23c
000003f0: 00c0 06bc 0080 4e3d 0040 1c3c 0060 033d
0.017700195 -0.047180176 -0.05407715 0.010772705 0.0519104 0.036010742 -0.01878357 -0.013145447
-0.012687683 -0.039215088 0.008636475 0.046691895 -0.0033035278 0.008926392 0.0012283325 -0.031707764
0.020935059 0.062561035 -0.025772095 -0.04559326 0.034973145 0.009033203 0.0028629303 -0.005592346
-0.016815186 0.0017700195 -0.05444336 -0.010322571 0.011810303 0.016952515 -0.040283203 -0.023635864
-0.00868988 -0.0262146 0.017532349 0.010757446 -0.02468872 -0.060272217 0.0022830963 -0.008331299
0.015777588 -0.08331299 -0.036956787 0.027786255 0.03161621 0.022018433 0.0009841919 0.02571106
-0.032043457 0.031799316 -0.03805542 -0.12976074 -0.059570312 -0.07763672 -0.01889038 -0.065979004
0.009796143 0.014045715 -0.01966858 -0.06222534 0.028839111 -0.015266418 -0.024337769 -0.035125732
0.012649536 -0.02784729 0.06463623 0.007865906 0.01838684 0.036712646 -0.03955078 0.03753662
0.0440979 0.011146545 -0.01676941 -0.024749756 -0.014328003 0.033416748 0.021255493 -0.0063819885
-0.014923096 0.0048065186 0.018432617 0.0064888 -0.033233643 0.014541626 -0.0010814667 -0.05606079
-0.057373047 -0.02494812 -0.05569458 -0.033172607 0.023422241 -0.00068998337 -0.012260437 -0.09375
0.008422852 -0.018798828 0.023925781 0.021652222 -0.022262573 -0.026901245 0.0018520355 0.018859863
0.05053711 0.03387451 0.03062439 0.033813477 -0.0112838745 0.044555664 -0.06585693 -0.06488037
0.007083893 -0.061767578 -0.0077934265 0.0020923615 0.031555176 0.033599854 0.03253174 0.03112793
-0.039093018 0.056854248 0.01977539 0.04055786 -0.0062217712 0.045013428 0.02508545 -0.009086609
0.024612427 0.009895325 -0.03982544 0.0317688 -0.02772522 0.0019836426 0.048736572 0.023971558
0.012840271 0.03390503 0.04397583 -0.0020542145 -0.024398804 -0.026885986 -0.05670166 -0.0045166016
0.03527832 -0.000582695 0.05328369 -0.03427124 -0.0138168335 -0.00818634 -0.03765869 -0.0007171631
-0.0107421875 -0.0033607483 -0.04647827 -0.027801514 -0.058166504 -0.0006275177 -0.024230957 -0.010292053
0.009750366 0.0368042 -0.027145386 0.01574707 -0.003107071 0.0038871765 0.017089844 0.058776855
-0.090270996 -0.02293396 -0.029968262 -0.025390625 0.000975132 0.039245605 -0.04486084 -0.028152466
0.0035743713 -0.025802612 0.011413574 0.06222534 0.033935547 0.061645508 -0.010795593 0.02027893
-0.04135132 0.011772156 -0.001996994 0.004283905 0.009307861 -0.023880005 0.008346558 -0.016479492
-0.003458023 -0.04324341 0.012008667 -0.029708862 0.0021858215 -0.016174316 0.015701294 -0.0105896
-0.04473877 -0.04916382 0.03286743 0.019989014 -0.023208618 0.0036239624 -0.020462036 0.05831909
-0.0027770996 -0.04840088 -0.07324219 -0.02116394 0.005756378 -0.044281006 -0.03277588 -0.046051025
-0.017059326 0.004398346 -0.03692627 -0.035369873 0.05065918 0.015510559 0.00869751 -0.052825928
-0.009651184 -0.0134887695 0.0046424866 0.00894928 0.059936523 -0.09680176 -0.024642944 -0.04550171
-0.008972168 -0.052459717 0.006011963 -0.11053467 -0.064575195 -0.027572632 -0.029022217 -0.028900146
-0.033477783 -0.02142334 0.05303955 -0.0032520294 -0.034942627 -0.024307251 -0.058929443 0.026168823
-0.07501221 -0.0028514862 -0.040924072 0.025680542 -0.008224487 0.05041504 0.009536743 0.032073975

conv.2.bias f4 [50]
00000000: 0020 eb3e 00a0 6abd 0020 d43c 0000 2cbd
00000010: 00a0 66be 0060 a1bd 0040 8fbe 0000 65bd
00000020: 00e0 9bbd 0040 4b3d 00e0 6fbc 0000 433d
00000030: 0020 8b3e 00c0 04be 00c0 c8bd 0080 f1bd
00000040: 0000 243e 00a0 a23d 00e0 1fba 0060 e33e
00000050: 00e0 8a3e 0020 87be 00a0 a0bc 00c0 babd
00000060: 0020 55be 00c0 b3bd 0060 99bc 00a0 8b3a
00000070: 0000 8e3e 00a0 2fbe 0060 89be 00a0 a43d
00000080: 0060 783e 0060 01be 0000 19be 0080 cc3e
00000090: 00e0 aabd 00e0 613e 0000 f43e 00e0 abbd
000000a0: 0060 d83e 0000 9fbe 0000 b93d 00c0 cb3e
000000b0: 0060 2ebc 00c0 6dbc 0000 5abe 0020 98bd
000000c0: 0080 05bc 0000 053f
0.45922852 -0.057281494 0.025894165 -0.041992188 -0.22521973 -0.07879639 -0.27978516 -0.055908203
-0.07611084 0.049621582 -0.014640808 0.047607422 0.27172852 -0.12963867 -0.09802246 -0.11791992
0.16015625 0.07940674 -0.0006098747 0.4440918 0.27124023 -0.26391602 -0.019607544 -0.09118652
-0.20812988 -0.087768555 -0.018722534 0.0010652542 0.27734375 -0.17150879 -0.26831055 0.0803833
0.24255371 -0.12634277 -0.14941406 0.39941406 -0.08343506 0.22058105 0.4765625 -0.08392334
0.42260742 -0.31054688 0.09033203 0.39794922 -0.010643005 -0.014511108 -0.21289062 -0.074279785
-0.008148193 0.51953125

conv.4.weight f4 [50, 50, 21]
00000000: 00e0 0abc 00e0 ffbc 0020 013d 0020 2e3d
00000010: 00c0 b73d 0040 20bd 0060 9ebd 0040 1bbd
00000020: 00e0 33bc 0060 5abb 00a0 143d 0020 833d
00000030: 0020 a73d 00e0 903c 00e0 be3d 00a0 74bc
00000040: 0040 7c3d 00e0 223d 0040 6e3c 0040 693d
00000050: 00e0 47bb 0040 4b3d 00e0 4ebd 00e0 0a3d
00000060: 0040 2bbb 0020 3b3c 0020 0dbd 00c0 ac3c
00000070: 00e0 e83a 00e0 9cbc 00e0 9bbd 0080 093d
00000080: 00a0 b6bd 0020 c1bc 00c0 ba3c 0040 393d
00000090: 0060 afbb 00e0 99bc 00e0 99bd 00a0 3fbd
000000a0: 00e0 bdbd 00c0 93bd 00c0 0e3d 0080 30bd
000000b0: 00e0 b4bd 00a0 c3bc 0060 7cbb 00a0 3b3d
000000c0: 0080 25bd 00c0 5d3a 00c0 8cbd 0060 a13c
000000d0: 0000 7a3c 00a0 733b 00e0 843d 0020 033c
000000e0: 0060 0abd 0080 793d 00c0 053d 0080 2bbc
000000f0: 0000 1fbd 0020 903d 0000 0b3d 0000 40bd
00000100: 0080 25bc 0020 933c 0080 c23c 00a0 58bd
00000110: 00a0 923c 00c0 2bbd 0040 033d 00c0 1e3d
00000120: 00e0 463c 00c0 2d3c 00c0 d3bc 0040 30bc
00000130: 0020 e2bc 0060 16bd 0040 6b3c 00e0 e6bc
00000140: 0080 41bc 0000 103d 0000 27bd 0060 383d
00000150: 0080 f93b 00e0 e9bc 00e0 75bc 00a0 2cbc
00000160: 0000 c5ba 0080 39bc 0020 af3a 0000 16bd
00000170: 0000 bc3b 00a0 a23b 0080 113d 0080 cbbc
00000180: 0080 353d 00a0 cdbc 0020 7fbd 00e0 13bd
00000190: 0000 1cbd 0020 a9bd 0080 a1bc 00e0 c0bc
000001a0: 0080 67bd 0080 a23d 0040 0dbc 00c0 f8bc
000001b0: 0020 193c 0080 2fbd 00e0 7bbc 0020 27bc
000001c0: 00c0 80bd 0040 d43b 00e0 ebbc 0060 8dbc
000001d0: 0040 fd3c 00e0 683d 00e0 42bc 00a0 8fbc
000001e0: 0080 a7bd 00e0 8dbc 00c0 ec3c 0080 8ebd
000001f0: 0080 42bc 00a0 a4bc 0000 90bc 0060 6bbd
00000200: 0060 27bd 0000 71bd 0000 a5bc 0080 0e39
00000210: 0060 0dbc 00a0 983b 00c0 6c3d 0020 dcba
00000220: 0060 21bd 00e0 333b 0020 d8bc 0080 053d
00000230: 0040 503d 00c0 2c3b 0040 a3bd 0000 c83a
00000240: 0060 84bd 00e0 413c 0080 343d 0000 813d
00000250: 00c0 3c3d 00e0 a2bc 0020 b13c 0080 073d
00000260: 0060 1bbd 00a0 d3bc 00a0 34bd 0020 683c
00000270: 0080 713c 0020 3dbd 0080 383d 0020 823d
00000280: 00a0 8fbc 00e0 d9bd 0060 093d 00c0 b23c
00000290: 00e0 40bd 00a0 9d3d 00a0 9f3c 0000 5b3d
000002a0: 00c0 24bd 0080 b8bd 00c0 84bd 0080 ffbc
000002b0: 0020 7cbc 0000 8e3c 00c0 8dbc 0040 a13b
000002c0: 0000 3cbd 0000 b23c 0000 443d 0080 85bc
000002d0: 00a0 283d 00c0 53bd 0020 c8bc 00e0 36bd
000002e0: 0040 fdbc 0000 adbd 00e0 c1bc 0020 683d
000002f0: 00a0 573c 0020 62bc 0000 443c 0060 a03d
00000300: 00c0 abbc 0040 a13c 0040 40bb 00c0 d93b
00000310: 0000 2abc 0040 973b 0040 1abd 0060 303d
00000320: 00a0 25bc 0040 82bd 00e0 00bd 00e0 793a
00000330: 00e0 d33b 00a0 fa3c 0060 60bb 00e0 a5ba
00000340: 00c0 113c 00a0 35bc 0000 1c3d 0040 f6bc
00000350: 0060 b3bc 0080 b93c 0080 243d 00c0 9d3c
00000360: 00c0 963c 0020 d43b 0000 3f3d 00e0 d03c
00000370: 00a0 533a 0020 2c3a 0000 173d 0060 6abc
00000380: 00a0 56bd 0040 873c 00e0 753d 0020 31bd
00000390: 00a0 c9bc 0000 38bc 0060 e13c 0060 1d3d
000003a0: 00c0 9bbb 0020 f1bb 00e0 efbc 0040 8b3c
000003b0: 00c0 1e3c 0080 f9bb 0060 78bb 0040 02bd
000003c0: 0080 acbc 0040 cbbc 00e0 2d3d 0060 a63c
000003d0: 0080 36bc 00a0 423d 0040 70ba 0000 5d3d
000003e0: 00a0 4b3d 0040 d53c 00a0 0dbc 00c0 a23c
000003f0: 00c0 03bb 0040 833d 00e0 9ebc 0080 1dbc
-0.008476257 -0.031234741 0.03152466 0.042510986 0.08972168 -0.039123535 -0.07733154 -0.037902832
-0.010978699 -0.003332138 0.0362854 0.06402588 0.081604004 0.017684937 0.09320068 -0.014930725
0.061584473 0.039764404 0.014541626 0.0569458 -0.0030498505 0.049621582 -0.05050659 0.03390503
-0.0026130676 0.011421204 -0.034454346 0.021087646 0.0017766953 -0.01914978 -0.07611084 0.033569336
-0.08917236 -0.02357483 0.02279663 0.04522705 -0.0053520203 -0.01878357 -0.07513428 -0.046783447
-0.0927124 -0.072143555 0.034851074 -0.04309082 -0.08831787 -0.023880005 -0.003850937 0.045806885
-0.040405273 0.0008459091 -0.068725586 0.019699097 0.015258789 0.0037174225 0.06488037 0.008003235
-0.03378296 0.060913086 0.03265381 -0.010467529 -0.03881836 0.070373535 0.033935547 -0.046875
-0.010101318 0.017959595 0.023742676 -0.052886963 0.01789856 -0.041931152 0.032043457 0.038757324
0.012138367 0.010604858 -0.025848389 -0.010757446 -0.02760315 -0.036712646 0.0143585205 -0.028182983
-0.011810303 0.03515625 -0.040771484 0.045013428 0.0076141357 -0.028549194 -0.015007019 -0.010536194
-0.0015029907 -0.0113220215 0.0013360977 -0.036621094 0.0057373047 0.004962921 0.03552246 -0.024841309
0.044311523 -0.025100708 -0.062286377 -0.036102295 -0.038085938 -0.08258057 -0.019714355 -0.023544312
-0.056518555 0.0793457 -0.008621216 -0.03036499 0.009346008 -0.04284668 -0.01537323 -0.0102005005
-0.06286621 0.006477356 -0.028793335 -0.01725769 0.030914307 0.056854248 -0.011894226 -0.017532349
-0.08178711 -0.017318726 0.028900146 -0.06958008 -0.011871338 -0.020095825 -0.017578125 -0.0574646
-0.040863037 -0.05883789 -0.020141602 0.00013589859 -0.008628845 0.0046577454 0.057800293 -0.0016794205
-0.039398193 0.0027446747 -0.026382446 0.032592773 0.050842285 0.0026359558 -0.079711914 0.0015258789
-0.06463623 0.011833191 0.044067383 0.06298828 0.046081543 -0.019882202 0.021621704 0.033081055
-0.03793335 -0.02583313 -0.0440979 0.014167786 0.01473999 -0.046173096 0.045043945 0.0635376
-0.017532349 -0.10638428 0.03353882 0.021820068 -0.047088623 0.07696533 0.019485474 0.053466797
-0.040222168 -0.09008789 -0.064819336 -0.031188965 -0.015388489 0.017333984 -0.017303467 0.0049209595
-0.045898438 0.021728516 0.047851562 -0.016296387 0.041168213 -0.051696777 -0.024429321 -0.044647217
-0.030914307 -0.084472656 -0.023666382 0.056671143 0.013160706 -0.013801575 0.011962891 0.078308105
-0.020965576 0.019683838 -0.0029335022 0.0066452026 -0.010375977 0.0046157837 -0.03765869 0.043060303
-0.010108948 -0.06359863 -0.031463623 0.0009531975 0.006465912 0.030593872 -0.0034236908 -0.0012655258
0.008895874 -0.01108551 0.038085938 -0.030059814 -0.021896362 0.022644043 0.040161133 0.019256592
0.0184021 0.0064735413 0.04663086 0.025497437 0.0008072853 0.00065660477 0.036865234 -0.014305115
-0.05239868 0.01651001 0.060028076 -0.04324341 -0.024612427 -0.011230469 0.027511597 0.03842163
-0.004753113 -0.007358551 -0.029281616 0.016998291 0.009689331 -0.0076141357 -0.0037899017 -0.031799316
-0.021057129 -0.024810791 0.04244995 0.020309448 -0.011138916 0.04751587 -0.000916481 0.053955078
0.049713135 0.026031494 -0.008644104 0.019866943 -0.0020103455 0.064086914 -0.01939392 -0.009613037

conv.4.bias f4 [50]
00000000: 00c0 763e 00a0 003f 00e0 ce3e 0040 723e
00000010: 0000 313b 00a0 a43e 00c0 a33e 0000 8cbd
00000020: 0060 ca3d 0020 333f 0020 023e 00a0 c93e
00000030: 0060 023e 00e0 5d3d 0060 9dba 00e0 0b3f
00000040: 0060 01bc 0000 aa3b 0020 023f 0080 3d3d
00000050: 00a0 13bc 0040 f73e 0040 043d 00a0 5e3c
00000060: 00c0 023d 0000 e43c 0000 493d 0000 1b3d
00000070: 0080 4d3e 0060 0c3e 00a0 243e 00e0 3b3e
00000080: 00c0 5c3e 00a0 4abc 0040 08bc 0020 8f3b
00000090: 00c0 033d 0040 c33d 0080 0bbe 00e0 313f
000000a0: 0000 193e 0020 92bd 00e0 d63c 0000 dabd
000000b0: 0080 e53d 00a0 8d3e 00c0 0b3f 0040 1e3e
000000c0: 0000 953d 0060 1a3e
0.2409668 0.5024414 0.40405273 0.23657227 0.0027008057 0.3215332 0.31982422 -0.068359375
0.09881592 0.69970703 0.1270752 0.39379883 0.12731934 0.0541687 -0.001200676 0.5463867
-0.007896423 0.0051879883 0.5083008 0.04626465 -0.009010315 0.48291016 0.032287598 0.013587952
0.031921387 0.027832031 0.049072266 0.037841797 0.2006836 0.13708496 0.1607666 0.18347168
0.21557617 -0.012367249 -0.00831604 0.0043678284 0.032165527 0.095336914 -0.13623047 0.6948242
0.14941406 -0.0713501 0.026229858 -0.10644531 0.11206055 0.27661133 0.54589844 0.15454102
0.072753906 0.15075684
